…
2025-11-24 11:18:34,946 | train | INFO | Using device: cuda
2025-11-24 11:18:36,787 | train | INFO | Computing class counts for training set...
2025-11-24 11:19:13,363 | train | INFO | Class counts: [4338, 6292, 4254, 2801, 3585, 383, 3467]
2025-11-24 11:19:13,461 | train | INFO | Class weights (inverse frequency): [0.8272410035133362, 0.5703387260437012, 0.8435757756233215, 1.281175136566162, 1.0009962320327759, 9.369638442993164, 1.0350652933120728]
2025-11-24 11:19:13,506 | train | INFO | Model built:
MainCNN(
  (features): Sequential(
    (0): ConvBlock(
      (conv1): DepthwiseSeparableConv2d(
        (depthwise): Conv2d(1, 1, kernel_size=(3, 3), stride=(1, 1), padding=(1, 1), bias=False)
        (pointwise): Conv2d(1, 32, kernel_size=(1, 1), stride=(1, 1), bias=False)
      )
      (bn1): BatchNorm2d(32, eps=1e-05, momentum=0.1, affine=True, track_running_stats=True)
      (act1): ELU(alpha=1.0, inplace=True)
      (conv2): DepthwiseSeparableConv2d(
        (depthwise): Conv2d(32, 32, kernel_size=(3, 3), stride=(1, 1), padding=(1, 1), groups=32, bias=False)
        (pointwise): Conv2d(32, 32, kernel_size=(1, 1), stride=(1, 1), bias=False)
      )
      (bn2): BatchNorm2d(32, eps=1e-05, momentum=0.1, affine=True, track_running_stats=True)
      (act2): ELU(alpha=1.0, inplace=True)
      (res_proj): Conv2d(1, 32, kernel_size=(1, 1), stride=(1, 1), bias=False)
      (pool): MaxPool2d(kernel_size=2, stride=2, padding=0, dilation=1, ceil_mode=False)
      (dropout): Dropout2d(p=0.25, inplace=False)
    )
    (1): ConvBlock(
      (conv1): DepthwiseSeparableConv2d(
        (depthwise): Conv2d(32, 32, kernel_size=(3, 3), stride=(1, 1), padding=(1, 1), groups=32, bias=False)
        (pointwise): Conv2d(32, 64, kernel_size=(1, 1), stride=(1, 1), bias=False)
      )
      (bn1): BatchNorm2d(64, eps=1e-05, momentum=0.1, affine=True, track_running_stats=True)
      (act1): ELU(alpha=1.0, inplace=True)
      (conv2): DepthwiseSeparableConv2d(
        (depthwise): Conv2d(64, 64, kernel_size=(3, 3), stride=(1, 1), padding=(1, 1), groups=64, bias=False)
        (pointwise): Conv2d(64, 64, kernel_size=(1, 1), stride=(1, 1), bias=False)
      )
      (bn2): BatchNorm2d(64, eps=1e-05, momentum=0.1, affine=True, track_running_stats=True)
      (act2): ELU(alpha=1.0, inplace=True)
      (res_proj): Conv2d(32, 64, kernel_size=(1, 1), stride=(1, 1), bias=False)
      (attention): SEBlock(
        (avg_pool): AdaptiveAvgPool2d(output_size=1)
        (fc): Sequential(
          (0): Linear(in_features=64, out_features=4, bias=False)
          (1): ReLU(inplace=True)
          (2): Linear(in_features=4, out_features=64, bias=False)
          (3): Sigmoid()
        )
      )
      (pool): MaxPool2d(kernel_size=2, stride=2, padding=0, dilation=1, ceil_mode=False)
      (dropout): Dropout2d(p=0.25, inplace=False)
    )
    (2): ConvBlock(
      (conv1): DepthwiseSeparableConv2d(
        (depthwise): Conv2d(64, 64, kernel_size=(3, 3), stride=(1, 1), padding=(1, 1), groups=64, bias=False)
        (pointwise): Conv2d(64, 128, kernel_size=(1, 1), stride=(1, 1), bias=False)
      )
      (bn1): BatchNorm2d(128, eps=1e-05, momentum=0.1, affine=True, track_running_stats=True)
      (act1): ELU(alpha=1.0, inplace=True)
      (conv2): DepthwiseSeparableConv2d(
        (depthwise): Conv2d(128, 128, kernel_size=(3, 3), stride=(1, 1), padding=(1, 1), groups=128, bias=False)
        (pointwise): Conv2d(128, 128, kernel_size=(1, 1), stride=(1, 1), bias=False)
      )
      (bn2): BatchNorm2d(128, eps=1e-05, momentum=0.1, affine=True, track_running_stats=True)
      (act2): ELU(alpha=1.0, inplace=True)
      (res_proj): Conv2d(64, 128, kernel_size=(1, 1), stride=(1, 1), bias=False)
      (attention): SEBlock(
        (avg_pool): AdaptiveAvgPool2d(output_size=1)
        (fc): Sequential(
          (0): Linear(in_features=128, out_features=8, bias=False)
          (1): ReLU(inplace=True)
          (2): Linear(in_features=8, out_features=128, bias=False)
          (3): Sigmoid()
        )
      )
      (pool): MaxPool2d(kernel_size=2, stride=2, padding=0, dilation=1, ceil_mode=False)
      (dropout): Dropout2d(p=0.25, inplace=False)
    )
    (3): ConvBlock(
      (conv1): DepthwiseSeparableConv2d(
        (depthwise): Conv2d(128, 128, kernel_size=(3, 3), stride=(1, 1), padding=(1, 1), groups=128, bias=False)
        (pointwise): Conv2d(128, 256, kernel_size=(1, 1), stride=(1, 1), bias=False)
      )
      (bn1): BatchNorm2d(256, eps=1e-05, momentum=0.1, affine=True, track_running_stats=True)
      (act1): ELU(alpha=1.0, inplace=True)
      (conv2): DepthwiseSeparableConv2d(
        (depthwise): Conv2d(256, 256, kernel_size=(3, 3), stride=(1, 1), padding=(1, 1), groups=256, bias=False)
        (pointwise): Conv2d(256, 256, kernel_size=(1, 1), stride=(1, 1), bias=False)
      )
      (bn2): BatchNorm2d(256, eps=1e-05, momentum=0.1, affine=True, track_running_stats=True)
      (act2): ELU(alpha=1.0, inplace=True)
      (res_proj): Conv2d(128, 256, kernel_size=(1, 1), stride=(1, 1), bias=False)
      (attention): SEBlock(
        (avg_pool): AdaptiveAvgPool2d(output_size=1)
        (fc): Sequential(
          (0): Linear(in_features=256, out_features=16, bias=False)
          (1): ReLU(inplace=True)
          (2): Linear(in_features=16, out_features=256, bias=False)
          (3): Sigmoid()
        )
      )
      (pool): MaxPool2d(kernel_size=2, stride=2, padding=0, dilation=1, ceil_mode=False)
      (dropout): Dropout2d(p=0.25, inplace=False)
    )
  )
  (gap): AdaptiveAvgPool2d(output_size=1)
  (classifier): Sequential(
    (0): Flatten(start_dim=1, end_dim=-1)
    (1): Linear(in_features=256, out_features=256, bias=True)
    (2): ELU(alpha=1.0, inplace=True)
    (3): Dropout(p=0.4, inplace=False)
    (4): Linear(in_features=256, out_features=7, bias=True)
  )
)
2025-11-24 11:19:13,507 | train | INFO | Using AdamW optimizer (lr=0.001, weight_decay=0.0001)
2025-11-24 11:19:13,508 | train | INFO | Using CosineAnnealingLR scheduler (T_max=50, eta_min=1e-05)
2025-11-24 11:19:13,512 | train | INFO | Starting training for 20 epochs. Early stopping patience = 15, best metric = val_macro_f1
2025-11-24 11:21:02,043 | train | INFO | Epoch 001/020 [108.5s] Train: loss=2.1548, acc=0.1588, macroF1=0.1479 | Val: loss=1.9363, acc=0.1523, macroF1=0.0946
…
